notebooks/cipar_net.pth (torch, 250887 bytes, 10 tensors)

conv_1.weight f4 [6, 3, 5, 5]
00000000: fb27 f93d a551 8cbd 61db 2e3d 6839 25bd
00000010: 3409 9e3d bc7b 853e 577f 233f 9d8a 1d3f
00000020: 38b8 163f 444f fc3e 1603 0c3e 6247 7e3d
00000030: 63b8 733e 402b 4b3e a8f8 273e fbb9 b2be
00000040: cea0 c9be 276e bebe d8ec 1cbe cded 55be
00000050: 0e40 7cbe 44eb 0abe e218 44be 0c4a b5bd
00000060: fc53 4cbe 9d40 0dbe 2ab4 01be ecae 69be
00000070: 853c 9cbe d976 16be 7201 3b3d baa5 ed3d
00000080: b399 e03e 2cb6 a93e ff76 8d3d 7416 04bd
00000090: effb cfbd 1331 09be fea2 e6bd f114 533d
000000a0: e797 81be 9efb 18bf cd23 09bf a315 02bf
000000b0: d42f dcbd 60d1 573d 7f7e febd 8305 6fbe
000000c0: b840 6abe 18ef 9abd 8a53 ae3a 7a31 fcbd
000000d0: e73f 7abe 423b 87be 9a0d 85be d916 9b3d
000000e0: e556 933e e433 c33e 3a63 ac3e e479 893e
000000f0: 9d31 ae3d 0ff7 443c bccc 1dbc fe42 643d
00000100: 9809 cebc 7d91 143d e700 e5bd 3c74 8ebe
00000110: 4579 ddbd f562 1cbd cdf1 7e3e 9a68 3a3e
00000120: 6201 723e dad9 043d af46 613d 3252 ad3e
00000130: 9ad8 d83d 0ce2 173e 907a debd 48a5 3fbd
00000140: ba39 493e 3bc8 b6bc 17a6 67be ba7e 97be
00000150: 0f45 0dbc 8bd5 a4bd e19a bbbe 2426 d2be
00000160: 71d5 58be e8b1 633e 7c46 a7be 7a61 e8be
00000170: e253 e4bd df8b 763c 9c24 793e b73e a8bd
00000180: 9cc0 9bbd 32ce bf3d 6ae3 843e 7ac3 4e3e
00000190: 8ede 863e 90fb 303e 0d00 8cbb 02f6 72be
000001a0: 1e79 90be be21 f13d a7b7 f1bd f390 84be
000001b0: 4e3e b2be 179f c9bd d5cd 07be a58d 8dbe
000001c0: 4bf7 cfbe 905f 57bd b28d 373e 421c b4be
000001d0: 2623 79be 9793 44be a041 293e 09c7 913e
000001e0: 642c 27be 3279 c2bd 660f 653e 1435 8b3e
000001f0: d39b 5f3e 7a5e 2d3e 723a 883e f8df 55bd
00000200: ba47 3cbe 2e07 e2bd fe2e 5a3e 669f 1cbd
00000210: 91f1 66be b281 b6bd f5b4 683d fffa 223e
00000220: 5119 b0bd 954b 5bbe 7603 5d3c 21b4 b53e
00000230: 9003 0cbe d4bc c1bd fa6d 9b3d 6951 ac3e
00000240: 1cb6 c23e 1895 343d 1768 2e3e f809 5a3e
00000250: fea0 833e 4413 5d3e a619 923d 38fb 88bd
00000260: 2b90 e0be 6e31 ae3c 4144 ce3e 7da3 d6bc
00000270: e2fb 363e 2f7d 28bf fc5b a7bd 08e0 023f
00000280: a02c d33d aee0 323e b0b8 42bf 6e0b debd
00000290: 9222 363e 2477 533c faaa 4f3e 68f9 78be
000002a0: 46e0 cabe 372e 82be ea8b d4bd 2999 97bc
000002b0: 99c2 8d3e adb3 a03d a6b0 bdbd 4de3 b23d
000002c0: 885a 1f3d 2f74 cbbe c37d 863d 79cf e23e
000002d0: a178 cc3d 6a84 833e a503 2dbf 5bf9 403c
000002e0: 9f9c 0e3f ba04 a03d dfaf 143e c0e8 1bbf
000002f0: 8a7c 00bc 4045 b23e ab3e 453e 6b76 843e
00000300: b3ce 59bd b587 fcbd 4db7 f5bd 4c47 cc3d
00000310: bc30 143e 4ea0 ad3e d88b ca3d db87 4d3e
00000320: 1b03 c7bd a6dc 863c 307c 69be faed 793d
00000330: d69a 363e c9d1 e93d 298c 873e 8839 0fbf
00000340: f485 17bd f9a8 c73e 2623 903d 3409 3f3e
00000350: 6f3d bebe 8f4e 5bbe 1d34 ac3e 20ce 8d3c
00000360: f7d5 883e d9ee 75be 3efd a5be 35fe 57bd
00000370: b665 d4bc cfe3 17bd 7a32 8f3e 5d02 0f3d
00000380: 4e2b d8bd b667 e43d a87c 9f3d ee5a 533d
00000390: b682 b5bd 8c1f f8bd e06a 213e f9d1 e83d
000003a0: e978 6e3d e03c 6bbb 9e49 b3bc b852 dc3c
000003b0: c146 de3d 0a0c 723e d79c 873d 6bc0 f5bb
000003c0: 7d8e 9d3d c948 0b3d eb74 2a3e 6d80 d23d
000003d0: f708 2b3e a9ab 093e 3022 e538 3c00 fc3d
000003e0: 9144 bd3c 1663 b7bc fa60 50bd 6e32 a73d
000003f0: abf1 15be 0c9d 07be 1726 0ebe 14fe 293d
0.12165829 -0.0685151 0.042689685 -0.04033795 0.07716599 0.26070964 0.6386618 0.6153963
0.58874846 0.49279225 0.13673052 0.062079795 0.23800807 0.19840717 0.16403449 -0.34907517
-0.39380497 -0.37193415 -0.15324724 -0.20891495 -0.2463381 -0.13566309 -0.19150117 -0.08852014
-0.19953912 -0.1379418 -0.12666383 -0.22820634 -0.30514923 -0.14693774 0.045655675 0.116038755
0.43867263 0.331468 0.06907462 -0.032247975 -0.101554744 -0.13397627 -0.11261557 0.051533643
-0.25311205 -0.5975894 -0.5357025 -0.50814265 -0.1075131 0.05268991 -0.12426471 -0.23341946
-0.2287625 -0.07565135 0.0013300043 -0.123141244 -0.2443844 -0.26412398 -0.2598694 0.07572717
0.28777233 0.38125527 0.33669454 0.26850808 0.08505557 0.012021794 -0.009631332 0.05572795
-0.025151059 0.03627156 -0.11181813 -0.27823055 -0.10814146 -0.03818031 0.24896927 0.18203965
0.2363334 0.032434322 0.05499905 0.33851773 0.105881885 0.14832324 -0.10863221 -0.046788484
0.19650927 -0.022312274 -0.22621952 -0.29588872 -0.008622422 -0.080485426 -0.366416 -0.41044724
-0.21175171 0.22235835 -0.32670963 -0.4538687 -0.11148812 0.015047996 0.24330372 -0.08215087
-0.07605097 0.093655005 0.25954753 0.20191756 0.2634167 0.17283463 -0.004272467 -0.23726657
-0.28217405 0.11774014 -0.11802607 -0.25891837 -0.3481316 -0.09844797 -0.13262112 -0.2764713
-0.40618357 -0.05258137 0.17925146 -0.3517781 -0.24329814 -0.19196926 0.1652894 0.28472164
-0.16325527 -0.094957724 0.22369155 0.27188933 0.21836786 0.16930571 0.2660709 -0.052215546
-0.18386737 -0.11036526 0.21306989 -0.03823795 -0.22553088 -0.08911456 0.0568132 0.1591606
-0.08598579 -0.21415551 0.013489595 0.3548899 -0.13673234 -0.09459844 0.07589336 0.3365586
0.38029563 0.0440875 0.17031895 0.21292865 0.25708765 0.2158938 0.07133798 -0.06688541
-0.4385999 0.021263804 0.4028645 -0.026201004 0.17869523 -0.65816015 -0.081718415 0.51123095
0.10311246 0.17468521 -0.7606306 -0.10842024 0.17786625 0.012906823 0.20280066 -0.24313891
-0.39624232 -0.25425884 -0.10378249 -0.01850565 0.2768753 0.078467704 -0.09262209 0.087347604
0.038904697 -0.3973708 0.06566956 0.44298914 0.09983946 0.2568696 -0.67583686 0.011778201
0.55707735 0.078134015 0.14520214 -0.60902023 -0.007842192 0.3481846 0.19262187 0.25871596
-0.05317564 -0.123305716 -0.119978525 0.09974536 0.14471716 0.33911365 0.09889954 0.20071356
-0.09717389 0.016462635 -0.2280128 0.061017968 0.17832503 0.114169665 0.2647412 -0.5594716
-0.036992982 0.38996103 0.07037954 0.18655854 -0.37156245 -0.21416686 0.3363351 0.017310202
0.26725742 -0.24016894 -0.3241977 -0.052732665 -0.025927406 -0.03708249 0.27968198 0.034914363
-0.10555135 0.11152594 0.07787448 0.05160039 -0.08862822 -0.12115392 0.15763426 0.11368174
0.058220778 -0.0035894439 -0.02188569 0.026894912 0.10853339 0.23637405 0.06621712 -0.0074997446
0.07693193 0.03400496 0.16646163 0.102784015 0.16702639 0.1344439 0.00010925939 0.12304732
0.023103984 -0.022386115 -0.050873734 0.081639156 -0.1464297 -0.13243502 -0.13881718 0.041502073

conv_1.bias f4 [6]
00000000: 52a2 1dbf d4e8 f5be ee1b d7bd 617f 26bd
00000010: e798 0f3f 5317 20be
-0.61575806 -0.48029196 -0.10503374 -0.04064882 0.56092685 -0.15633897

conv_2.weight f4 [16, 6, 5, 5]
00000000: 8007 13bd 9240 623e 896c 963e c6a5 503e
00000010: 39eb 853e d31f cc3c 942b 9cbd 2e7e a4bb
00000020: e7fe b0bd 1673 c93d 0d06 d23d ec80 633e
00000030: 6470 763e eaf3 d43d 46fb 5e3d 6e55 b03d
00000040: cd31 0d3d e1a4 0fbd b910 ae3c 0988 e1bd
00000050: 4779 e4bc b833 ee3d 5002 df3d f813 603d
00000060: 21da 18be a3a9 8a3d dc5f 1ebe 0c37 0cbe
00000070: 08f8 09be 637a 6fbd 557c 10bc 29c7 eabc
00000080: b253 abbd 0640 96bd b091 bdbd f52e 483e
00000090: 4052 503d e665 b73c 2230 a5bc 4205 78bd
000000a0: 80a9 093e 311b 343d 3040 fe3c 820d d0bc
000000b0: 7a53 ce3c 914b 10be 2877 96bd d24e b23c
000000c0: 2ed0 2bbd a384 1b3d 0e7f 3ebe 00bd 87be
000000d0: cdac 7dbe 67c8 1ebe ae06 c83c 8fe6 5dbd
000000e0: 893f 85be 85d0 92bd 4cf5 09bd b20f 883e
000000f0: 160c 1c3e 01f5 83bd 4545 453d 969f ea3d
00000100: ba1f 863e 542d b33d 5f19 313d 9195 1e3d
00000110: 6023 123e a79a 4e3e 0a38 d0bd a6e0 a5bd
00000120: b3cb e53c f585 fc3d b831 013e 4aae f43d
00000130: 70fc 793d efca 07ba 6ab7 9ebc fac8 6a3d
00000140: 0c74 eb3d f30a b63d a689 863d 986c 88bd
00000150: 891f 38be 9f52 43bc 270b fcbb 51f5 ffbd
00000160: 4433 3fbe 3181 7fbe 3991 d8bc 82cd 103d
00000170: c571 b8bd 12e0 c9bd 7ec3 cfbd 8519 85bd
00000180: 3bb7 28bc 6599 04be a734 50bd 7e5c cfbd
00000190: d94f 4bbd 2919 eabc 6764 003e 8a1f 093d
000001a0: 030d 253d 0d2f 34bd 75a5 a33d 4c08 1d3d
000001b0: 0e16 9fbc 1477 ccbd 8ed7 45bc f5e3 05bd
000001c0: b023 513d 2c82 a53d 13f5 d73c ad7b d5bd
000001d0: 3e1a 83bc 03ca d3bc 7c7b 45bd aa25 1dbe
000001e0: be01 e13b dd45 cd3d d01b b53d 1617 903d
000001f0: 839d ac3d d09b 863d 3e04 e83d 54af c53b
00000200: 86b0 333c ebba 613e 3377 083e ea3a 103e
00000210: 5dac 0cbc 2e77 91bd 344a 043e 008d 413d
00000220: 0de4 2cbd 8419 84bc b670 f2bd cb5b 67bc
00000230: d10b e73d 76ad 91bd bdca 7e3d 0696 14be
00000240: c30c 093d f714 20bd da3e b7bd 41d7 cd3c
00000250: af0f e3bc fa80 f9bb 46c5 703e c2e4 9d3d
00000260: f716 3e3d ccc9 87bd d991 8d3d 41cc a13e
00000270: b185 0b3d a11c 6d3d fc89 583d 3e7c 193e
00000280: 3492 223e a321 c03d 238d fe3c 084f 5b3d
00000290: 5651 103e 744f a23d 999e 4fbd d42d 1e3d
000002a0: 9b46 743d 7629 1c3e e889 ec3d 80ca 7f3e
000002b0: 904d bc3e 8ccb 553e dbf6 c7bc c2c9 26be
000002c0: bde5 28be ccd3 16be 1ff4 51bd 8792 0cbd
000002d0: 35e8 1bbe c128 3abe 94b1 1abe 215a e1bd
000002e0: 8106 36bd 2bf3 e1bd d49a 28be 5447 73be
000002f0: b3b1 c3bd ab0e d83c 3163 32be 73f4 b9bd
00000300: fe49 d4bd 4341 c8bd 47c1 ab3a 8613 7ebd
00000310: ee2f 3e3d a5d9 433d 15f0 943d 1aa0 b53e
00000320: 3a22 0abe 2a75 4ebd 9c82 87bd 1343 12be
00000330: 9819 45bc c79c 9e3d 5652 95bd 17a9 a43c
00000340: 8e54 b5bd 7b8d 17bc 3504 383e fbee 9ebd
00000350: b6eb 17be 4027 eebd 7533 57bc b53e 9c3e
00000360: e355 b3bc f79a 9fbd 1a13 45bd aa7f a2bd
00000370: 1499 7f3e 5bc9 4f3e 5bc3 b4bc 5347 6fbd
00000380: 0bb1 b4bc f7d1 1e3e 6bab 0b3d 9e7c f9bc
00000390: 46fb d9bd a40f 92bd e2ed 283c edab babd
000003a0: 59e5 3abd 661e 91bb dd43 2fbe 7701 a4bd
000003b0: 5862 b5bd 7aee 6abd e105 b6bd 10b1 27be
000003c0: 29fb 61bd 7719 a8bd ae3c 683d 8468 d3bc
000003d0: 1b02 36be a10e 09be 16c6 a53d af85 463d
000003e0: 2d17 70bd 313d e9bd 639b 8c3d 45b5 183e
000003f0: f18b 3f3d 2b6e 8e3d adc6 153e 6b04 003d
-0.035895824 0.22094944 0.2937968 0.20375738 0.26156023 0.024917519 -0.07625499 -0.0050199246
-0.08642369 0.09836404 0.1025506 0.22217149 0.24066311 0.103980854 0.05443885 0.086100444
0.03447132 -0.03506935 0.021248208 -0.11012275 -0.02788986 0.11630958 0.10889113 0.054706544
-0.1492696 0.06770637 -0.15466255 -0.13692874 -0.13473523 -0.058466326 -0.008818706 -0.02865942
-0.08365573 -0.0733643 -0.09256303 0.19549163 0.05085969 0.022387456 -0.020164553 -0.06055189
0.13443565 0.043971244 0.031036466 -0.025397066 0.02518629 -0.14091326 -0.07346946 0.0217661
-0.041946582 0.03796829 -0.18603155 -0.26511383 -0.2477295 -0.15506135 0.024417248 -0.054174956
-0.26025036 -0.07168678 -0.0336812 0.26574475 0.15238985 -0.06443215 0.048161764 0.1145622
0.2619608 0.0874888 0.043237086 0.038716856 0.14271307 0.20176183 -0.101669386 -0.08099489
0.028051233 0.12330238 0.12616622 0.119473055 0.06103176 -0.0005180081 -0.019374568 0.057320572
0.114967436 0.08888807 0.06569223 -0.066613376 -0.1798078 -0.011921554 -0.007691759 -0.12497962
-0.186719 -0.24951626 -0.026436435 0.035352238 -0.09006075 -0.09857191 -0.10144709 -0.06499008
-0.010297592 -0.1294914 -0.050831463 -0.10125063 -0.049636696 -0.02857645 0.125383 0.033477344
0.040295612 -0.043990184 0.07990543 0.03833799 -0.019419696 -0.0998365 -0.012075318 -0.0326881
0.051059425 0.08081469 0.026361978 -0.1042398 -0.016003724 -0.025853163 -0.048213467 -0.15346399
0.0068666628 0.10023091 0.088431954 0.07035653 0.084284805 0.065726876 0.11328934 0.0060328636
0.010967379 0.2204396 0.13326721 0.14084974 -0.0085860165 -0.0710281 0.12918931 0.04725361
-0.042209674 -0.016125448 -0.11837904 -0.014121006 0.11281551 -0.07113163 0.062205065 -0.14510354
0.033459436 -0.039082494 -0.08947535 0.025127055 -0.02771744 -0.007614252 0.23512754 0.07709648
0.04640862 -0.066302866 0.06912584 0.31601146 0.034063045 0.05788863 0.052865967 0.14988801
0.15876085 0.09381416 0.031073159 0.053542167 0.14093527 0.07925311 -0.05068836 0.038617924
0.059637647 0.15250191 0.11549741 0.24979591 0.36777925 0.20878428 -0.024409702 -0.16287902
-0.16493888 -0.14729232 -0.051258203 -0.034319427 -0.15225299 -0.18179609 -0.15106803 -0.11003519
-0.044439796 -0.11032709 -0.16465312 -0.23757678 -0.09555378 0.026374182 -0.17420651 -0.09079828
-0.103656754 -0.09778073 0.0013103866 -0.062030338 0.046432428 0.047814984 0.072723545 0.3547371
-0.13489619 -0.050404705 -0.06616709 -0.142834 -0.012030028 0.07744747 -0.07291095 0.02010016
-0.08854018 -0.00925004 0.17970355 -0.07760426 -0.1483601 -0.1162858 -0.013134827 0.30516592
-0.02189154 -0.07793229 -0.04811392 -0.07934506 0.24960738 0.20291655 -0.022065809 -0.05841763
-0.022057077 0.15509783 0.034099024 -0.03045493 -0.1064363 -0.071318895 0.010310622 -0.091148235
-0.04562888 -0.0044286726 -0.17115732 -0.08008092 -0.08856648 -0.057356335 -0.0888784 -0.16376138
-0.055171166 -0.08207982 0.056698494 -0.025806673 -0.1777424 -0.13384487 0.080944225 0.048467334
-0.058615852 -0.113886245 0.06865575 0.14912899 0.046764318 0.069546066 0.1462657 0.031254213

conv_2.bias f4 [16]
00000000: 28b5 30bf f17c ccbd 1de5 42bd 0b71 cd3d
00000010: 3788 823d 066a 20bf 96a6 693e 4e64 eb3e
00000020: 5dfa e23d f569 20bc 5ec0 4dbe 2783 863f
00000030: c79a 3abe badd 2c3e b974 82be c797 913d
-0.6902642 -0.09984768 -0.04758178 0.10031327 0.06373637 -0.6266178 0.22817454 0.45974964
0.11082909 -0.009790887 -0.20092914 1.0508775 -0.18223105 0.16881457 -0.25479677 0.07109027

fc1.weight f4 [120, 400]
00000000: f8ee 603c e84c e33c eda7 863d 78aa 6c3d
00000010: 4288 d73c 82aa 743c 2ada e53a fa01 f63c
00000020: fb52 d238 cd8a 713c 2013 503d 8d19 463d
00000030: 6a91 463d 8257 673c b2a6 143d ac02 e0b8
00000040: df80 1e3b 2438 4c3c 05f0 aebc cd0e e8bc
00000050: 7450 30bd c5ae 283c a9c1 853d 364b 8e3c
00000060: e20d 003d 3ee7 453c c286 903d a0f5 413c
00000070: 99f9 933c 1677 693d 26b3 3abd de7c 7a3c
00000080: 56a6 483d a25d f83c 5cb4 6cbb b0af 043d
00000090: 0dad b53d 9bc3 883d 8f4e 3a3c 9ed7 c13c
000000a0: 23bc 523d f3ad 8b3d c44c 603c c3f3 bd3c
000000b0: 92cf 8b3c 5735 ae3c 22a5 573d ea88 583d
000000c0: 9a56 b53c f8a3 82bd bb11 13bc 77e4 4fbc
000000d0: 1aef 5cbd 7c42 d53c 7cad 38bd 0032 8bbd
000000e0: 5231 8abb 6cfa ee3c 8597 72bd 9c6d 1a3c
000000f0: a9cd 8ebd 2455 a1bd 47b0 203c 7841 d2bc
00000100: 2116 ab3d c7fa 233b 45e8 3dbd ac17 103c
00000110: bc6a ba3c ff38 3b3c 4417 9bbc 77d0 a63c
00000120: 66d0 173c 80bb 133d f988 5bbd 1b67 88bc
00000130: b201 b93b 1dec 15bd 5d65 1fbd 8825 e63c
00000140: 48d1 02bd fe46 4dbc 2473 0c3d c0e1 543d
00000150: 9bc9 ab3b 2e89 833d 8d0e 9f3b a788 38bd
00000160: 0714 28bd c0c9 9ebd cc9d 4c3d 21c6 713d
00000170: 5de5 523c f074 463c 5836 8dbd 80d0 c53c
00000180: defd e23c 2f01 bdba 6d2c 193d 3643 95bd
00000190: 8a90 533d b23e 04bc b019 4cbc 3988 883c
000001a0: 90c9 debb 1226 7a3d 1211 653b 22fa 12bd
000001b0: cc16 5cbb adc3 8cbc cc10 1fbd d3e8 21bd
000001c0: e65c 2d3d 4296 0ebb 52b4 2ebc 9742 4abd
000001d0: 8083 913c c688 cdbb eda6 67bc e385 69bb
000001e0: 9a7e 70bc 108d 3d3b e7ae aebc 1844 da3c
000001f0: c925 083c 6c4c 41bb cdc2 523d 20a7 c7bc
00000200: 1024 37bd ab69 d9bb 8a84 7d3c 17ac 5c3d
00000210: 3051 573c 365b 313d d94e 3fbd 5f64 dc3b
00000220: 64d5 3fbd a5f6 b23b bcb9 2ebd 29f6 32bd
00000230: 036a 253b e6ee 4bbd 8492 0f3d 7464 22bd
00000240: 36ba 30bc 162a 1ebd 03ed c83c 0245 89bd
00000250: eaee dc3b fcce 473c 873c 48bd 807a 16bd
00000260: 0bbe 03bd b373 2bbd e1e0 c2bc 10d3 433d
00000270: 64c9 16bd 3358 21bd 9617 14bd 8c4e cd3c
00000280: 7fb0 1f3d 2845 313c ad8e 853d 5a39 4abd
00000290: 4854 4d3d 15e8 543d 1c3b e63c ce2a d73d
000002a0: 2a39 cbbb e886 9f3d 5c4f 7b3d a6c6 933d
000002b0: 05a9 363d 4fd8 a43c 9e8d 483d 03f0 15bd
000002c0: 2e39 0ebd 3776 0bbc c435 55bd e090 c4bd
000002d0: e79f 30bc dddb dfbb 3931 febc e8f5 9dbc
000002e0: 1473 5cbd 8f31 adbc 852b 06bd 1c08 f3b9
000002f0: 5d63 60bd 18ad 04bd 01c2 583b 6933 b93b
00000300: a78f a138 f640 b0bc d4b2 953a bed2 ac3d
00000310: 9048 863d 930c f93c f27b 953d 9326 163d
00000320: daab 3ab9 524c 19bd 3780 f3bc 96a1 9dbd
00000330: fcfe babd 6a82 183b ad3a acbc 2908 21bc
00000340: 7247 9fbc c659 193d 54c5 53bd 8825 72bb
00000350: 5f98 a73c 0c9d 25bd bc53 2f3b eaaa 46bc
00000360: d8b7 b03c 8921 6a3c 5baa 7eba 3e62 c0bc
00000370: d5e7 dcbc 0d36 72bc 1f5e 08bd ef45 9c3c
00000380: 694c b83c 0f35 023d 6d4a 533b 8292 ddbc
00000390: 269a 43bd 12f3 d93c af4a 33bd 6b4b 163d
000003a0: 1b8b d0bc 9dd7 e63c d2c9 0b3d acfd 6e3c
000003b0: 445c ec3a 1869 fa3c ffdc 06bd 0e07 abbc
000003c0: 8b25 3f3d 8bc6 95bc e57f 1abc b2a7 223d
000003d0: ef2c 3fbd bc8e 86bc 7517 053b 3372 2dbd
000003e0: b4ca a4bc d452 823d 1869 9cbd 707e 6abd
000003f0: 8f46 e03c 8077 81bd 31f9 92bd 106d fcba
0.01372885 0.027746633 0.06574998 0.05777976 0.02631009 0.01493323 0.0017536331 0.03003024
0.00010029037 0.014742565 0.05079949 0.04836421 0.04847852 0.014119985 0.036291786 -0.0001068165
0.00241857 0.012464557 -0.021354685 -0.02832737 -0.043045476 0.010295575 0.06531078 0.017369848
0.03126324 0.012079058 0.07056953 0.011838347 0.018063353 0.056998335 -0.045581006 0.01528856
0.048986755 0.030318085 -0.0036118245 0.03239411 0.088708974 0.06677934 0.011371269 0.023662385
0.051448952 0.068202876 0.013690177 0.023187524 0.01706675 0.021265669 0.052647717 0.052864946
0.022136021 -0.06378931 -0.008976395 -0.012688748 -0.053938963 0.026032679 -0.045087323 -0.06796646
-0.004217305 0.029172145 -0.05922653 0.009425547 -0.0697282 -0.078775674 0.009807653 -0.025665984
0.0835383 0.00250213 -0.046364088 0.008794706 0.022755973 0.011427163 -0.018931992 0.020363076
0.009265995 0.036067486 -0.053597424 -0.016650727 0.005645954 -0.03660213 -0.038915027 0.028094068
-0.031937867 -0.012529133 0.034289494 0.051973104 0.005242539 0.06422649 0.0048540295 -0.045052197
-0.041034725 -0.077533245 0.049955174 0.05902684 0.012872067 0.012112841 -0.06895131 0.024147272
0.027708944 -0.0014419908 0.037395883 -0.0728821 0.051651515 -0.008071588 -0.012457296 0.016666519
-0.0067989305 0.061071463 0.0034952802 -0.035883076 -0.0033582924 -0.01718315 -0.038834378 -0.03952868
0.042324923 -0.002175704 -0.010663109 -0.04937991 0.0177629 -0.006272408 -0.014138919 -0.0035632781
-0.014678622 0.002892319 -0.021323634 0.026643798 0.00830979 -0.0029495014 0.051455308 -0.024371684
-0.044712126 -0.006634911 0.015473494 0.053875055 0.013141915 0.043299876 -0.046706054 0.0067258324
-0.046834365 0.005461531 -0.0426576 -0.043691788 0.002524019 -0.04978838 0.035051838 -0.03964658
-0.010786584 -0.038614355 0.024527078 -0.06702615 0.006742348 0.012195345 -0.04888585 -0.03673792
-0.03216366 -0.041858386 -0.023788871 0.047808707 -0.036813155 -0.039390754 -0.036155306 0.025061868
0.03898668 0.010819711 0.06521354 -0.0493711 0.050129205 0.051979143 0.028104357 0.10506211
-0.006201883 0.07789403 0.06135498 0.072156236 0.044594783 0.020122675 0.04896318 -0.036605846
-0.0347225 -0.008512071 -0.052053228 -0.09597945 -0.010780311 -0.0068316297 -0.03102933 -0.019282296
-0.053820685 -0.021141795 -0.032756347 -0.00046354614 -0.05478226 -0.032391638 0.003307462 0.0056518805
7.7038356e-05 -0.02151535 0.0011421093 0.084386334 0.06556809 0.030401504 0.07299031 0.03665788
-0.00017802362 -0.0374263 -0.029724224 -0.07696836 -0.09130666 0.0023271092 -0.021024073 -0.009828606
-0.019443247 0.03743913 -0.05170186 -0.003694864 0.020458398 -0.040432975 0.002675279 -0.01212571
0.021572039 0.014290222 -0.0009714716 -0.023484346 -0.026966015 -0.0147833945 -0.033292886 0.019076316
0.022497373 0.031788882 0.0032240406 -0.0270474 -0.04775443 0.026605163 -0.043772396 0.036693018
-0.025456956 0.028178984 0.034128018 0.014586847 0.0018032868 0.03056769 -0.032925602 -0.020877387
0.046666663 -0.01828315 -0.0094299065 0.039710708 -0.04667371 -0.016425483 0.002030817 -0.042345237
-0.020116188 0.063634545 -0.076372325 -0.057249486 0.027377395 -0.06321621 -0.07176436 -0.0019258577

fc1.bias f4 [120]
00000000: 7a21 8d3d f61b 5abd 2a83 833d 0dd7 58bc
00000010: c3d9 f3bc 0fa9 0a3e 0a88 243b bcf3 483d
00000020: 0cb7 ee3c 7453 9b3d bb08 caba 67c5 fa3c
00000030: b854 65bd b536 8f3d 69e7 533e 6745 9c3e
00000040: 5f8f f43c 143d efbc 4fa2 f53d 2a44 f9bb
00000050: ab6d c5bc 1b0b 943d 717e b53d fbfe 243d
00000060: 2c0b a63c 20e1 193d c554 c73d 0b9e d7bb
00000070: 3753 ed3d dfec 183e db63 083d 4fa1 a53c
00000080: c2ba 00bd d76b 293d d20c 463d 60f4 0e3e
00000090: 993f 403d ece8 363e 947b 5a3d 5125 6abc
000000a0: dfc0 d53c 245a c03a b93b dab9 fb3b 373d
000000b0: efe4 f13c 043a 8ebc a3b8 3e3d 32dd 1a3c
000000c0: b254 0a3d 6cf4 0c3d 14b1 87bd 1497 b73c
000000d0: 4277 853d a7f7 583d 717d 933c a702 003e
000000e0: aac6 25bc 7432 17bc b387 88bc 9db2 11bd
000000f0: 35be a83c eb04 aabb 7229 7d3c 3b44 4dbd
00000100: 22ff f23d c15b 25bd 9350 883c afe6 ed3c
00000110: 6680 573d c39e 2ebc 2df7 163d 3fc8 bbbd
00000120: 59ea a3bd 594b c6bd 7850 b73d 693e aebb
00000130: 26cc 143e 21ab 24be 3a3b 04be 7a6d 5bbd
00000140: 3d2c 1ebd d21d 833c cf72 33bd f17e fabd
00000150: e155 c4bd 6145 443d 5df3 51bd f9d9 e33d
00000160: 4604 38bc 0ae7 133c 8b09 10be 6cf4 a3bc
00000170: 7ec8 a83d 2b55 f43c 2b18 6f3e ab2b c9bd
00000180: 0e1c 353d 41d1 90bd 3b5a a83d de60 c13d
00000190: a8b9 1e3e a207 27bd f2fa 0dbd aff2 8a3d
000001a0: 881b 7d3d 7816 e0bc f563 39bd fe35 a73c
000001b0: 3ad4 04bd 8bca 5e3c dfb1 2aba 69d9 45bc
000001c0: bb5e 48bd 71ae aabb 8176 e8bc 9cd2 9dbd
000001d0: c71e ba3d d753 163d c843 09bd c2ea 87bd
0.06891151 -0.053249322 0.06421502 -0.013234866 -0.029766923 0.13541053 0.00251055 0.04906057
0.029140018 0.07584277 -0.0015413979 0.030611707 -0.055988997 0.069928564 0.20693745 0.305217
0.02985352 -0.029203929 0.119938485 -0.0076070027 -0.024100145 0.07228681 0.088620074 0.04028223
0.020268999 0.03756821 0.097329654 -0.0065801195 0.115881376 0.14934109 0.033298355 0.02021852
-0.031428106 0.04136261 0.04835207 0.13960409 0.04693565 0.1786229 0.05334051 -0.0142911235
0.026092945 0.0014675301 -0.00041624697 0.044734936 0.02952811 -0.017361648 0.046562802 0.009452151
0.033772178 0.034412786 -0.06625572 0.022410907 0.06516887 0.052970555 0.018004151 0.12501012
-0.010118166 -0.009228338 -0.016666269 -0.03557073 0.02059851 -0.0051885745 0.015451776 -0.050113898
0.11865069 -0.040370706 0.016639983 0.029040663 0.052612685 -0.010657969 0.03685682 -0.09169053
-0.08003683 -0.0968234 0.08950895 -0.0053174985 0.14531001 -0.16080905 -0.12913218 -0.0535712
-0.038616408 0.01600543 -0.043810662 -0.122312434 -0.095866926 0.047917727 -0.05125748 0.11125559
-0.011231488 0.009027252 -0.1406614 -0.02001401 0.08241366 0.029825768 0.23349063 -0.09822782
0.04421621 -0.07071162 0.08220335 0.09442304 0.1550051 -0.040778764 -0.03466315 0.067845695
0.061793834 -0.027354464 -0.045261342 0.020411488 -0.032428958 0.013598095 -0.000651149 -0.01207576
-0.048918467 -0.0052087833 -0.02837682 -0.07706186 0.090879016 0.03670105 -0.033511907 -0.066365734

fc2.weight f4 [84, 120]
00000000: 253a dbbc 7519 c33c a950 723d 766e 60bc
00000010: c0a8 903d 84e8 8abc 7f86 1d3c 374e 32bd
00000020: 5033 19bd 1e1c 5abd 7411 b83d f827 a1bd
00000030: 673e b0bc 5fdd 1b3d 4b8a b63c 98ff acba
00000040: 4864 19bc 5ff8 37bd c96e 91bd e699 c3bd
00000050: 39ce 19bc c83a 1bbd 02f1 893d e018 9d3d
00000060: 860f 5ebd cc5b 62bd f62d 5cbd 8d23 153b
00000070: b065 513b 175f 8cbd ca8c 853d 2723 733d
00000080: defa 793c dd87 a4bb 9571 2f3d 26ee 883c
00000090: 33cf 54bd 13dd 80bb 95d6 c1bd 34d7 a33c
000000a0: d324 8abd 398a debc 3221 39bd 7cf4 0c3d
000000b0: 48f3 443b 7c01 e2bb d49f 12bd 2850 613d
000000c0: ac88 a5bd a636 00ba 4d1e b2bc f21b 4cbd
000000d0: a1a5 8e3c 5b99 4c3d bf3e 953d 089b ccbd
000000e0: cbed 88bd 0f3b 323d 0890 9e3d dfdb 233c
000000f0: e89d 16bd 2e9d b53d 4dc6 463d 62dc 98bd
00000100: 1b28 1a3c e4e4 37bd 676e 1bbd d0d1 70bd
00000110: a5d4 64bd 0951 96bd e3ed 8fbd d824 863d
00000120: 787c 44bd 5723 9a3d 48ef 41bc fbb7 ec3c
00000130: 4f7b 93bd f7ae 52bd 9e8c 2abc af7a 703d
00000140: 2929 0fbd 3e64 edbb 3814 8b3d 4c58 03bd
00000150: 00be 97bd 71df 66bd e388 d13c 4819 1f3d
00000160: 538d fb3c 875a 39bd 1290 7bbc d7e9 a7bd
00000170: d0d4 d2bc f727 a53d 0f27 12bd 6eda 7a3b
00000180: 080a 0f3b 5151 9cbd 2805 413d 5da9 86bd
00000190: 3891 a8bd b701 f1bd 7abb 183d 9edd 893d
000001a0: 4a9f 1c3d 1ad5 c5bc a190 953c 8165 813d
000001b0: 830f 163d f6fb 6bbd c89e 9c3d 1aef bdbd
000001c0: 901a 99bd fc96 143d 48d9 17bc 1de3 433d
000001d0: 32ef 63bd d40f a3bd 6cd5 ec3c 83ac 313d
000001e0: 72f0 7dbd 7802 a1bd 3cef 29bd 8ed1 e9bc
000001f0: 7327 9a3d df26 6c3c f25d 593c 7fad 843d
00000200: b78a f3bd cc2c eabc 20da 193d 69a9 bb3d
00000210: 7f38 3fbd a6a1 f1bc f63d f63d bb7b 0ebc
00000220: c7bf 253d 8994 ad3d cc80 2fbd 9e5a 1f3d
00000230: 5f36 3abc 383b 2cbc 63ab ad3b a9fc 9cbd
00000240: 1b29 92bd 2e49 8f38 d03a 963c ad73 30bd
00000250: ce53 21bd 85a0 f13d 5596 70bd a971 0fbe
00000260: 04b1 48bd d650 a53d 5087 8abd 03ad 81bd
00000270: 315d 06be 2d43 58bd c132 06bd 8c2a 14bd
00000280: ea65 87ba 775c 813d bd1a 5ebd 5896 a13d
00000290: 893c 803c e731 e03d dc33 ccbd c971 9cbd
000002a0: ea4d 6f3d b83a 873c 72b0 d53d 103e bcbc
000002b0: 0440 9d3d 410d a3bd eaac 383d 6936 0b3c
000002c0: 3744 c5bd 73fa a6bd 47ed 9d3d c600 aebd
000002d0: 1b64 5cbd d1bc 75bd 5991 833d 8d43 fc3d
000002e0: 0817 96bd 5f05 723b a575 d13c 1e94 89bc
000002f0: 605b 59bd b208 2b3d adc4 11bd 83c3 cd3c
00000300: e8a6 b73d c4f7 88bc 7196 87bb d5b5 3abd
00000310: 9ec1 73bd ad88 c2bd a93d a8bc 5061 b4bd
00000320: 8984 08be d0fa ba3c d196 033d 4939 f73c
00000330: a47e 693d 5b6e 5a3d 674e 98bd df73 2a3e
00000340: 66f4 463c ed7a aabd 2a62 80bc ee60 00be
00000350: d039 e93c eca8 6ebd 3235 19be cee0 a5bd
00000360: 8b7f dfbb c58d 84bd 2290 f23d 9acd 7f3d
00000370: b877 243d 8065 ad3c 880c 1e3d d564 c7bd
00000380: 6476 57bd 9ab1 0dbc af97 b9bd b84f a2bc
00000390: 1b7b 9abd 90ff ccbd 7961 92bd 5f2e 653d
000003a0: f62b e1bc 9551 2fbb eb30 a73c b897 8c3d
000003b0: 8bf0 273b e2c1 1f3d d651 a3bd a2e4 ac3d
000003c0: 4a25 23bd c2fd 22bd 7e21 60bd 7d7e cebd
000003d0: 4f53 413d bca7 3a3d ff36 63bd 8f52 053d
000003e0: dbd8 8dbc ae6d 843d 80ff 183d e921 60bd
000003f0: b8a5 873d a64a f43c 58e7 a43c e7df aabd
-0.026761124 0.02381585 0.059158955 -0.013698211 0.070634365 -0.016956575 0.009614586 -0.043531623
-0.03740245 -0.05324947 0.08987704 -0.078689516 -0.02151413 0.038052913 0.02228274 -0.0013198731
-0.009362288 -0.0449146 -0.07101209 -0.09550838 -0.009387546 -0.037897855 0.06735422 0.0767076
-0.054214023 -0.055263326 -0.05375477 0.0022756786 0.003195148 -0.068540744 0.06520994 0.059359696
0.015257565 -0.005021079 0.04283293 0.01671512 -0.051955413 -0.003932604 -0.094647564 0.020000078
-0.06745305 -0.02716552 -0.045197673 0.034412846 0.0030052233 -0.0068971496 -0.035796955 0.055008084
-0.08082709 -0.0004890956 -0.021742964 -0.04983134 0.017412962 0.04995094 0.072873585 -0.09990507
-0.066859804 0.043513354 0.077423155 0.010001152 -0.036771685 0.0886787 0.048528958 -0.0746391
0.009408976 -0.04489602 -0.037947085 -0.058793843 -0.055866856 -0.07339675 -0.07027795 0.06549996
-0.047970265 0.07526272 -0.011836834 0.028896322 -0.072012536 -0.05143639 -0.010409502 0.05871075
-0.034951363 -0.007244616 0.06790966 -0.03206663 -0.074092865 -0.056365434 0.025577968 0.03884247
0.030707037 -0.04525235 -0.015354173 -0.08198898 -0.025736243 0.08064263 -0.03568178 0.0038277167
0.0021826047 -0.076326974 0.047124058 -0.06575272 -0.08230823 -0.11767905 0.037288167 0.06731723
0.038237847 -0.024149466 0.018257441 0.063181885 0.036635887 -0.057613336 0.076474726 -0.09274121
-0.074757695 0.036276802 -0.0092681125 0.047824014 -0.055648036 -0.07962003 0.028910361 0.04337741
-0.061996885 -0.07861799 -0.041487917 -0.028542306 0.075270556 0.0144135645 0.013267027 0.06478404
-0.11891692 -0.028585814 0.037561536 0.09163172 -0.04668474 -0.029496025 0.12023537 -0.008696492
0.040466096 0.084755965 -0.04284744 0.03890478 -0.011365502 -0.010512166 0.005299972 -0.076653786
-0.071367465 6.832402e-05 0.01833859 -0.043079067 -0.039386563 0.11798195 -0.058737118 -0.14008202
-0.04899694 0.08072059 -0.0676409 -0.063318275 -0.13121487 -0.05279844 -0.032763246 -0.03617339
-0.0010330055 0.063164644 -0.05422472 0.07890004 0.015653865 0.10947018 -0.09970829 -0.0763889
0.058423914 0.016507491 0.10434045 -0.022978812 0.07678226 -0.07961512 0.04508678 0.008496859
-0.096321516 -0.08153238 0.07711273 -0.08496241 -0.053806406 -0.059994522 0.06424207 0.12317572
-0.073286116 0.003692947 0.025568793 -0.01679426 -0.053065658 0.04175634 -0.035587955 0.025117641
0.08967382 -0.016719706 -0.004137807 -0.045583565 -0.05951082 -0.09498725 -0.020537214 -0.088076234
-0.13331808 0.022824675 0.03212625 0.030178683 0.05700554 0.0533279 -0.07436829 0.16645764
0.01214323 -0.083242275 -0.015671808 -0.12536976 0.02846995 -0.058266565 -0.14961699 -0.08099519
-0.006820624 -0.06472353 0.118438974 0.062451936 0.040153235 0.021166563 0.03858617 -0.09736029
-0.05260314 -0.008648301 -0.090621345 -0.019813403 -0.07543012 -0.10009682 -0.07147498 0.055952426
-0.027486783 -0.0026751508 0.020409068 0.068648756 0.0025625553 0.03900326 -0.07974593 0.08442046
-0.039830483 -0.039792784 -0.05471944 -0.100827195 0.04719859 0.04557012 -0.05547237 0.032549437
-0.017315319 0.06466232 0.03735304 -0.05471984 0.06623405 0.029820751 0.020129845 -0.08343487

fc2.bias f4 [84]
00000000: 4406 79bd d83e f43d 7fe6 6fbd b7f2 45bd
00000010: f8ad 9738 0bb2 55bd 735c 29be a7fb 17bd
00000020: d6f0 003d cb10 293c de3e 573d 3378 76bd
00000030: 47a3 d43d 514e 5d3e 3df3 343c 6ddb f53d
00000040: 26ad b5bd 4192 7a3d d988 8c3b 21f0 19bd
00000050: e508 7b3e 63f1 9fbd 3f5b c33d 23de 50bd
00000060: 85cc e5bc 193c 2a3d 142a d8bd 1cf4 4ebd
00000070: 35b8 223a ec74 14bd 7f02 c33d 898c d33d
00000080: e2b9 4c3e d892 663d 3207 ad3e 2181 89bd
00000090: e713 6dbd 272f 77bd b958 00be 9cfc 07bc
000000a0: 3907 04be 341d 9abc a8d8 68bc c29c 963d
000000b0: dec6 5b3d 4bd6 cabd 4da9 873e 355a 81bc
000000c0: 4123 853d 9064 233d eac0 943d 1774 b53d
000000d0: 8388 313e 8062 be3d a76c 1e3e 10a4 d83e
000000e0: 0073 b8bc 5966 a23e 6cbf 703d 9a20 b83e
000000f0: 4efb 9b3c 15b2 b0bc 572d af3e 93c1 c83c
00000100: 23d5 d73d 13fc 1a3e 2be4 ff3d 66d0 5d3d
00000110: 9cb3 893e 343d dc3d 1edb 99bd ef2a e0bd
00000120: 4475 c8bd bee2 d0bc 6b4c 74bd 9fff 713e
00000130: 90de 023e 91e7 843e f490 ddbc e14a 6ebd
00000140: c9ea d7bc 1d85 18bc e6e2 623c e121 8c3d
-0.06079699 0.11926049 -0.058569428 -0.048327174 7.232645e-05 -0.052171748 -0.16539173 -0.03710523
0.03147968 0.010318945 0.05255019 -0.060173225 0.10382705 0.21611907 0.011044321 0.12004743
-0.08870916 0.061174635 0.0042887744 -0.03758252 0.24515112 -0.07809713 0.09538888 -0.050993096
-0.028051624 0.04156122 -0.10554901 -0.05052577 0.00062072586 -0.036244318 0.095219605 0.10329539
0.19992784 0.056292385 0.33794552 -0.067140825 -0.05788031 -0.060347702 -0.12533845 -0.008299973
-0.1289338 -0.018812753 -0.014211811 0.07354118 0.05365645 -0.099041544 0.26496354 -0.015790084
0.06500865 0.039890826 0.07263358 0.08860033 0.17337231 0.09296131 0.15471135 0.4231267
-0.022515774 0.3171871 0.058776304 0.35962373 0.01904073 -0.021569291 0.3421428 0.024506366
0.105386995 0.15135221 0.124946915 0.054153822 0.26894844 0.10753861 -0.075124964 -0.10945689
-0.09787992 -0.025498744 -0.05964319 0.23632668 0.12780213 0.2595792 -0.027046658 -0.05817688
-0.026357071 -0.00930908 0.013848042 0.068423994

fc3.weight f4 [10, 84]
00000000: ee6b 3bbd f620 aabd dad5 073d 210e 5a3d
00000010: 8857 963d 9619 733e 96df de3d 0774 48bd
00000020: c115 ff3c 6a3b 0b3d c3a5 ab3a 0d09 86bc
00000030: 1d47 a8bc e138 0bbe 21cf c63d f3fb 0d3e
00000040: c62a 8f3d 4434 173e 5ae5 bcbc 33e6 2cbe
00000050: 8e5c 5ebe 74ff dbbd b566 08be 0a5c e13d
00000060: bddb 2e3e 0618 5fbe b1e2 153e 0cd8 eebb
00000070: 466a 753d 7dab f4bc bf3b 7f3e dd39 063e
00000080: 2c49 2c3e af00 813e aa59 303c bf71 ccbd
00000090: 7a2e 6bbd 7d84 a23e f02a 173d e3c3 4c3c
000000a0: 2607 07bd 0111 203d 4f3c 01bd 1bae 74bd
000000b0: 274e c1bd 737b 573e 58b6 6dbe eba7 873b
000000c0: 2e00 283e dfff 723b 9df0 503c 80a4 323c
000000d0: b19e 6cbe 00d6 953e 5b25 473e 7105 d1bd
000000e0: 4c1c acbd 2a20 803e 00ec 2bba 6348 a5be
000000f0: 0426 75bd 2e1f a6ba 3a70 37be 1153 4f3d
00000100: 5163 633e f0a6 403c 9751 f43d 50e1 7abd
00000110: 1977 6bbc 5d48 0fbe 3cb2 8fbc 2ccf c1bd
00000120: 8693 e5bc 6eda 55bd aceb 5dbb 5771 743e
00000130: 9432 ebbd 5942 b13e fcd3 cf3d 2299 9a3d
00000140: 46b4 2a3d a2f4 b1bd 0ad0 953c 3e6a 143c
00000150: 5ebc 623d 6153 1bbe a632 34bd e333 88bd
00000160: c209 a2bc 19b7 3dbd 9be8 2a3e 3554 ba3d
00000170: 1ced 2a3d 645a 323d 618e 2a3e 7b8c 213e
00000180: 892a e6bd 5871 adbe eea8 0ebc 8526 c9bc
00000190: 82e0 bc3d 4919 203e f948 d5bd e184 373e
000001a0: 9cb8 003e 563e 5a3e d701 7fbe b1a5 6fbd
000001b0: 1db9 20be 6b70 303e c970 993d 524d d23d
000001c0: c42d c7bc 3c54 5dbe 0b19 c83e dd8b 43be
000001d0: 0e6a e33d 303e d73d 8853 8ebe 9f9d d1bd
000001e0: d7ef fe3c d29b 54be 68e9 a5bb 1351 e83c
000001f0: 8deb d73d 681b 3e3a 5a1e ed3d a75d 803d
00000200: ad12 3d3d 202b 393d e1be 38be 4289 b9bc
00000210: 0b10 20be 0a8d f33d 2dcb 38bc 5803 7a3d
00000220: d154 7bbe db69 7d3e 4134 ec3d 9f9b 8fbe
00000230: 942c e23d fe17 26be 2662 a53c a7ba 6abe
00000240: 8635 82bd 2f97 c9bd 0035 e3bd 01ee 6c3d
00000250: 7bc2 9bbc 82ef 34be 7f75 e6bd 7326 693e
00000260: 74f8 d1bd be22 4a3e a999 4e3d 1d38 bbbd
00000270: 7b5e 0d3e 2049 babc 1b0e d43d 160d 39bc
00000280: ad4a 9b3d 1f7a 2a3d 5c6e 363e 84c0 c4bd
00000290: 10ed f5bb 67f3 04bd 8e4a 9d3d 28e2 533e
000002a0: c89d 3f3d ba54 4ebd b24b b5bd 1f71 2b3c
000002b0: a280 0bbd aa11 3fbe 1388 afbd 5ec5 e93d
000002c0: 94ef 26be b11e a0bd 945c a0bd 2b45 debd
000002d0: c8bf c9bc 9e65 783e 54c0 57b9 48c7 4e3e
000002e0: 2d52 d73d 0705 7dbe 2c70 66bd df5c f1bd
000002f0: 802a 8d3b de14 53bb 037c 3dbd 73f6 b73d
00000300: a98a 903d cfd3 083e 0a87 34be d174 c53d
00000310: 5f52 67bd bad0 e1bd 65f4 5abd e583 f7bc
00000320: f5ca 06be b3cf 68bd 40d2 973d 85b2 f63c
00000330: 5bbd abbc 576b 0a3e 5d54 2fbe fccb a23d
00000340: 1f08 04be 3f8f 363e 6331 a33c 314e 653d
00000350: 9b8d 91bb bb7c 083d 74af 133e c9fb 8dbd
00000360: 7ee2 853e 4766 dabc ec39 d33d 8a2b f83d
00000370: d756 103e 0b47 e43a 12bf 3a3d 9bf7 4d3e
00000380: 146e 823d d4ba 803e 7724 0d3d 93c1 783d
00000390: 1136 fc3d 34f5 a9bd 5996 6b3e 82c2 e63d
000003a0: b374 b53d 2dbc aa3d df40 8f3e a018 e9bd
000003b0: b415 9f3c 73eb 00be 93c2 983e a819 35be
000003c0: ae09 4ebd e98e de3c 6be2 a73d 891e 9d3d
000003d0: 5d1c 05bd e4a3 ae3d 974a 023e a74a c73d
000003e0: 6eb2 d5bd ce96 553e c76e 903d 044a 09be
000003f0: 1b1e 61bd 20b1 08be ed04 28bd fb56 123c
-0.045757227 -0.08307068 0.03316293 0.05323613 0.07340914 0.23740229 0.108824894 -0.048938777
0.031138303 0.03399221 0.0013095665 -0.016361738 -0.020541722 -0.13595916 0.097074755 0.13865642
0.0699058 0.14766032 -0.023058582 -0.16884689 -0.21714994 -0.10742083 -0.1332043 0.11003883
0.17076011 -0.21786508 0.14637257 -0.0072889384 0.059915803 -0.029866928 0.24925135 0.1310801
0.16824788 0.25195834 0.010763565 -0.09982633 -0.05741737 0.31741706 0.036906183 0.012497875
-0.0329658 0.039078716 -0.031551655 -0.059736352 -0.094387345 0.21043186 -0.2321409 0.0041398904
0.16406319 0.003707878 0.012752679 0.010903478 -0.23107411 0.29264832 0.19447844 -0.10206116
-0.08403835 0.2502454 -0.0006558299 -0.3228179 -0.059850708 -0.0012674087 -0.17913905 0.050616328
0.22205855 0.011758551 0.119296245 -0.06125003 -0.014371657 -0.13992448 -0.017541043 -0.09463343
-0.028024446 -0.052210264 -0.0033862395 0.2387136 -0.114842564 0.34620932 0.10147855 0.07548739
0.04167583 -0.08689238 0.018287677 0.009058533 0.055355422 -0.15168525 -0.043993615 -0.066505216
-0.019780044 -0.046317194 0.16690294 0.090980925 0.04173003 0.043543234 0.16655876 0.15776245
-0.11238582 -0.33875537 -0.008707268 -0.0245545 0.09222509 0.15634646 -0.10414309 0.17921783
0.12570423 0.21312842 -0.24903046 -0.058507625 -0.15695615 0.17230384 0.07492215 0.10268654
-0.024313815 -0.21614164 0.39081606 -0.19096322 0.11104213 0.10509908 -0.27798104 -0.10235142
0.031120224 -0.20762566 -0.0050632246 0.028358972 0.105429746 0.00072520087 0.11578055 0.06267863
0.04616039 0.045207143 -0.18041565 -0.022648457 -0.1563112 0.118921354 -0.01127891 0.061038345
-0.24544074 0.24747412 0.11533404 -0.28048417 0.11043659 -0.1622009 0.020188402 -0.22922765
-0.06357865 -0.09843289 -0.11094093 0.057844166 -0.019013634 -0.1766949 -0.11252879 0.22768573
-0.10252467 0.19739816 0.05043951 -0.09141562 0.13805573 -0.022739947 0.10354253 -0.011294624
0.07582603 0.04162037 0.17815536 -0.09607032 -0.0075050667 -0.03245869 0.07680236 0.2069174
0.04678133 -0.05037377 -0.08852328 0.010463982 -0.03405822 -0.18659082 -0.08570876 0.11414598
-0.1630233 -0.07818354 -0.07830158 -0.108530365 -0.024627581 0.24257514 -0.00020575646 0.20193207
0.10513721 -0.24708949 -0.05625932 -0.11785292 0.004308045 -0.0032208483 -0.046260845 0.08982553
0.07057697 0.13362049 -0.17629638 0.096414216 -0.05647504 -0.110261396 -0.05345573 -0.03021426
-0.1316336 -0.056838702 0.07413149 0.030114422 -0.020964315 0.1351751 -0.17122026 0.07949063
-0.12893723 0.17828082 0.01992101 0.055982772 -0.0044419295 0.033322077 0.14422399 -0.0693279
0.26149362 -0.026660098 0.10313782 0.121176794 0.14095627 0.0017416192 0.045592375 0.20113985
0.06368652 0.2514254 0.034458604 0.06073148 0.12315 -0.08298722 0.23006572 0.11267568
0.08860149 0.08336673 0.2797918 -0.1138165 0.019419529 -0.12589817 0.29835948 -0.17685568
-0.0503022 0.027167754 0.08197483 0.0767184 -0.032497752 0.085273534 0.12723766 0.09731036
-0.104344234 0.20858309 0.07052379 -0.13407141 -0.05496035 -0.13348818 -0.041020323 0.008931871

fc3.bias f4 [10]
00000000: f049 b6be 27c7 e7be fc1a 993e bfe5 a43e
00000010: 4136 073f 4596 38be 67f6 6f3e b100 a9be
00000020: 4593 903e 313e 64be
-0.35603285 -0.4526913 0.299034 0.32206532 0.5281716 -0.18026073 0.23433839 -0.3300834
0.28237358 -0.22289349
